…
ets/Aerial Imagery.v1i.yolov8...: 100%|██████████| 6364/6364 [00:00<00:00, 6534.90file/s]\n","output_type":"stream"},{"name":"stdout","text":"Downloading https://ultralytics.com/assets/Arial.ttf to '/root/.config/Ultralytics/Arial.ttf'...\n","output_type":"stream"},{"name":"stderr","text":"100%|██████████| 755k/755k [00:00<00:00, 14.2MB/s]\n","output_type":"stream"},{"name":"stdout","text":"Overriding model.yaml nc=80 with nc=1\n\n                   from  n    params  module                                       arguments                     \n  0                  -1  1       928  ultralytics.nn.modules.conv.Conv             [3, 32, 3, 2]                 \n  1                  -1  1     18560  ultralytics.nn.modules.conv.Conv             [32, 64, 3, 2]                \n  2                  -1  1     29056  ultralytics.nn.modules.block.C2f             [64, 64, 1, True]             \n  3                  -1  1     73984  ultralytics.nn.modules.conv.Conv             [64, 128, 3, 2]               \n  4                  -1  2    197632  ultralytics.nn.modules.block.C2f             [128, 128, 2, True]           \n  5                  -1  1    295424  ultralytics.nn.modules.conv.Conv             [128, 256, 3, 2]              \n  6                  -1  2    788480  ultralytics.nn.modules.block.C2f             [256, 256, 2, True]           \n  7                  -1  1   1180672  ultralytics.nn.modules.conv.Conv             [256, 512, 3, 2]              \n  8                  -1  1   1838080  ultralytics.nn.modules.block.C2f             [512, 512, 1, True]           \n  9                  -1  1    656896  ultralytics.nn.modules.block.SPPF            [512, 512, 5]                 \n 10                  -1  1         0  torch.nn.modules.upsampling.Upsample         [None, 2, 'nearest']          \n 11             [-1, 6]  1         0  ultralytics.nn.modules.conv.Concat           [1]                           \n 12                  -1  1    591360  ultralytics.nn.modules.block.C2f             [768, 256, 1]                 \n 13                  -1  1         0  torch.nn.modules.upsampling.Upsample         [None, 2, 'nearest']          \n 14             [-1, 4]  1         0  ultralytics.nn.modules.conv.Concat           [1]                           \n 15                  -1  1    148224  ultralytics.nn.modules.block.C2f             [384, 128, 1]                 \n 16                  -1  1    147712  ultralytics.nn.modules.conv.Conv             [128, 128, 3, 2]              \n 17            [-1, 12]  1         0  ultralytics.nn.modules.conv.Concat           [1]                           \n 18                  -1  1    493056  ultralytics.nn.modules.block.C2f             [384, 256, 1]                 \n 19                  -1  1    590336  ultralytics.nn.modules.conv.Conv             [256, 256, 3, 2]              \n 20             [-1, 9]  1         0  ultralytics.nn.modules.conv.Concat           [1]                           \n 21                  -1  1   1969152  ultralytics.nn.modules.block.C2f             [768, 512, 1]                 \n 22        [15, 18, 21]  1   2116435  ultralytics.nn.modules.head.Detect           [1, [128, 256, 512]]          \nModel summary: 225 layers, 11,135,987 parameters, 11,135,971 gradients, 28.6 GFLOPs\n\nTransferred 349/355 items from pretrained weights\n\u001b[34m\u001b[1mTensorBoard: \u001b[0mStart with 'tensorboard --logdir runs/detect/train', view at http://localhost:6006/\nFreezing layer 'model.22.dfl.conv.weight'\n\u001b[34m\u001b[1mAMP: \u001b[0mrunning Automatic Mixed Preci
…
